…
/usr/local/lib/python2.7/dist-packages/pandas/util/_decorators.py:118: FutureWarning: The `sheetname` keyword is deprecated, use `sheet_name` instead
  return func(*args, **kwargs)
2017-11-20 01:34:20.411065: I tensorflow/core/platform/cpu_feature_guard.cc:137] Your CPU supports instructions that this TensorFlow binary was not compiled to use: SSE4.1 SSE4.2 AVX AVX2 FMA
('Compilation Time : ', 0.07776498794555664)
_________________________________________________________________
Layer (type)                 Output Shape              Param #   
=================================================================
lstm_1 (LSTM)                (None, 1, 128)            67072     
_________________________________________________________________
dropout_1 (Dropout)          (None, 1, 128)            0         
_________________________________________________________________
lstm_2 (LSTM)                (None, 128)               131584    
_________________________________________________________________
dropout_2 (Dropout)          (None, 128)               0         
_________________________________________________________________
dense_1 (Dense)              (None, 32)                4128      
_________________________________________________________________
dense_2 (Dense)              (None, 1)                 33        
=================================================================
Total params: 202,817
Trainable params: 202,817
Non-trainable params: 0
_________________________________________________________________
window: 1 accuracy: 0.521739130435
('Compilation Time : ', 0.025443077087402344)
_________________________________________________________________
Layer (type)                 Output Shape              Param #   
=================================================================
lstm_3 (LSTM)                (None, 2, 128)            67072     
_________________________________________________________________
dropout_3 (Dropout)          (None, 2, 128)            0         
_________________________________________________________________
lstm_4 (LSTM)                (None, 128)               131584    
_________________________________________________________________
dropout_4 (Dropout)          (None, 128)               0         
_________________________________________________________________
dense_3 (Dense)              (None, 32)                4128      
_________________________________________________________________
dense_4 (Dense)              (None, 1)                 33        
=================================================================
Total params: 202,817
Trainable params: 202,817
Non-trainable params: 0
_________________________________________________________________
window: 2 accuracy: 0.521739130435
('Compilation Time : ', 0.025573015213012695)
_________________________________________________________________
Layer (type)                 Output Shape              Param #   
=================================================================
lstm_5 (LSTM)                (None, 3, 128)            67072     
_________________________________________________________________
dropout_5 (Dropout)          (None, 3, 128)            0         
_________________________________________________________________
lstm_6 (LSTM)                (None, 128)               131584    
_________________________________________________________________
dropout_6 (Dropout)          (None, 128)               0         
_________________________________________________________________
dense_5 (Dense)              (None, 32)                4128      
_________________________________________________________________
dense_6 (Dense)              (None, 1)                 33        
=================================================================
Total params: 202,817
Trainable params: 202,817
Non-trainable params: 0
_________________________________________________________________
window: 3 accuracy: 0.217391304348
('Compilation Time : ', 0.01624608039855957)
_________________________________________________________________
Layer (type)                 Output Shape              Param #   
=================================================================
lstm_7 (LSTM)                (None, 4, 128)            67072     
_________________________________________________________________
dropout_7 (Dropout)          (None, 4, 128)            0         
_________________________________________________________________
lstm_8 (LSTM)                (None, 128)               131584    
_________________________________________________________________
dropout_8 (Dropout)          (None, 128)               0         
_________________________________________________________________
dense_7 (Dense)              (None, 32)                4128      
_________________________________________________________________
dense_8 (Dense)              (None, 1)                 33        
=================================================================
Total params: 202,817
Trainable params: 202,817
Non-trainable params: 0
_________________________________________________________________
window: 4 accuracy: 0.565217391304
('Compilation Time : ', 0.026643037796020508)
_________________________________________________________________
Layer (type)                 Output Shape              Param #   
=================================================================
lstm_9 (LSTM)                (None, 5, 128)            67072     
_________________________________________________________________
dropout_9 (Dropout)          (None, 5, 128)            0         
_________________________________________________________________
lstm_10 (LSTM)               (None, 128)               131584    
_________________________________________________________________
dropout_10 (Dropout)         (None, 128)               0         
_________________________________________________________________
dense_9 (Dense)              (None, 32)                4128      
_________________________________________________________________
dense_10 (Dense)             (None, 1)                 33        
=================================================================
Total params: 202,817
Trainable params: 202,817
Non-trainable params: 0
_________________________________________________________________
window: 5 accuracy: 0.409090909091
('Compilation Time : ', 0.016826868057250977)
_________________________________________________________________
Layer (type)                 Output Shape              Param #   
=================================================================
lstm_11 (LSTM)               (None, 6, 128)            67072     
_________________________________________________________________
dropout_11 (Dropout)         (None, 6, 128)            0         
_________________________________________________________________
lstm_12 (LSTM)               (None, 128)               131584    
_________________________________________________________________
dropout_12 (Dropout)         (None, 128)               0         
_________________________________________________________________
dense_11 (Dense)             (None, 32)                4128      
_________________________________________________________________
dense_12 (Dense)             (None, 1)                 33        
=================================================================
Total params: 202,817
Trainable params: 202,817
Non-trainable params: 0
_________________________________________________________________
window: 6 accuracy: 0.454545454545
('Compilation Time : ', 0.026021957397460938)
_________________________________________________________________
Layer (type)                 Output Shape              Param #   
=================================================================
lstm_13 (LSTM)               (None, 7, 128)            67072     
_________________________________________________________________
dropout_13 (Dropout)         (None, 7, 128)            0         
_________________________________________________________________
lstm_14 (LSTM)               (None, 128)               131584    
_________________________________________________________________
dropout_14 (Dropout)         (None, 128)               0         
_________________________________________________________________
dense_13 (Dense)             (None, 32)                4128      
_________________________________________________________________
dense_14 (Dense)             (None, 1)                 33        
=================================================================
Total params: 202,817
Trainable params: 202,817
Non-trainable params: 0
_________________________________________________________________
window: 7 accuracy: 0.454545454545
('Compilation Time : ', 0.016613006591796875)
_________________________________________________________________
Layer (type)                 Output Shape              Param #   
=================================================================
lstm_15 (LSTM)               (None, 8, 128)            67072     
_________________________________________________________________
dropout_15 (Dropout)         (None, 8, 128)            0         
_________________________________________________________________
lstm_16 (LSTM)               (None, 128)               131584    
_________________________________________________________________
dropout_16 (Dropout)         (None, 128)               0         
_________________________________________________________________
dense_15 (Dense)             (None, 32)                4128      
_________________________________________________________________
dense_16 (Dense)             (None, 1)                 33        
=================================================================
Total params: 202,817
Trainable params: 202,817
Non-trainable params: 0
_________________________________________________________________
window: 8 accuracy: 0.454545454545
('Compilation Time : ', 0.026149988174438477)
_________________________________________________________________
Layer (type)                 Output Shape              Param #   
=================================================================
lstm_17 (LSTM)               (None, 9, 128)            67072     
_________________________________________________________________
dropout_17 (Dropout)         (None, 9, 128)            0         
_________________________________________________________________
lstm_18 (LSTM)               (None, 128)               131584    
_________________________________________________________________
dropout_18 (Dropout)         (None, 128)               0         
_________________________________________________________________
dense_17 (Dense)             (None, 32)                4128      
_________________________________________________________________
dense_18 (Dense)             (None, 1)                 33        
=================================================================
Total params: 202,817
Trainable params: 202,817
Non-trainable params: 0
_________________________________________________________________
window: 9 accuracy: 0.454545454545
('Compilation Time : ', 0.02504897117614746)
_________________________________________________________________
Layer (type)                 Output Shape              Param #   
=================================================================
lstm_19 (LSTM)               (None, 10, 128)           67072     
_________________________________________________________________
dropout_19 (Dropout)         (None, 10, 128)           0         
_________________________________________________________________
lstm_20 (LSTM)               (None, 128)               131584    
_________________________________________________________________
dropout_20 (Dropout)         (None, 128)               0         
_________________________________________________________________
dense_19 (Dense)             (None, 32)                4128      
_________________________________________________________________
dense_20 (Dense)             (None, 1)                 33        
=================================================================
Total params: 202,817
Trainable params: 202,817
Non-trainable params: 0
_________________________________________________________________
window: 10 accuracy: 0.545454545455
('Compilation Time : ', 0.01785421371459961)
_________________________________________________________________
Layer (type)                 Output Shape              Param #   
=================================================================
lstm_21 (LSTM)               (None, 11, 128)           67072     
_________________________________________________________________
dropout_21 (Dropout)         (None, 11, 128)           0         
_________________________________________________________________
lstm_22 (LSTM)               (None, 128)               131584    
_________________________________________________________________
dropout_22 (Dropout)         (None, 128)               0         
_________________________________________________________________
dense_21 (Dense)             (None, 32)                4128      
_________________________________________________________________
dense_22 (Dense)             (None, 1)                 33        
=================================================================
Total params: 202,817
Trainable params: 202,817
Non-trainable params: 0
_________________________________________________________________
window: 11 accuracy: 0.5
('Compilation Time : ', 0.018891096115112305)
_________________________________________________________________
Layer (type)                 Output Shape              Param #   
=================================================================
lstm_23 (LSTM)               (None, 12, 128)           67072     
_________________________________________________________________
dropout_23 (Dropout)         (None, 12, 128)           0         
_________________________________________________________________
lstm_24 (LSTM)               (None, 128)               131584    
_________________________________________________________________
dropout_24 (Dropout)         (None, 128)               0         
_________________________________________________________________
dense_23 (Dense)             (None, 32)                4128      
_________________________________________________________________
dense_24 (Dense)             (None, 1)                 33        
=================================================================
Total params: 202,817
Trainable params: 202,817
Non-trainable params: 0
_________________________________________________________________
window: 12 accuracy: 0.5
('Compilation Time : ', 0.017282962799072266)
_________________________________________________________________
Layer (type)                 Output Shape              Param #   
=================================================================
lstm_25 (LSTM)               (None, 13, 128)           67072     
_________________________________________________________________
dropout_25 (Dropout)         (None, 13, 128)           0         
_________________________________________________________________
lstm_26 (LSTM)               (None, 128)               131584    
_________________________________________________________________
dropout_26 (Dropout)         (None, 128)               0         
_________________________________________________________________
dense_25 (Dense)             (None, 32)                4128      
_________________________________________________________________
dense_26 (Dense)             (None, 1)                 33        
=================================================================
Total params: 202,817
Trainable params: 202,817
Non-trainable params: 0
_________________________________________________________________
window: 13 accuracy: 0.545454545455
('Compilation Time : ', 0.016745805740356445)
_________________________________________________________________
Layer (type)                 Output Shape              Param #   
=================================================================
lstm_27 (LSTM)               (None, 14, 128)           67072     
_________________________________________________________________
dropout_27 (Dropout)         (None, 14, 128)           0         
_________________________________________________________________
lstm_28 (LSTM)               (None, 128)               131584    
_________________________________________________________________
dropout_28 (Dropout)         (None, 128)               0         
_________________________________________________________________
dense_27 (Dense)             (None, 32)                4128      
_________________________________________________________________
dense_28 (Dense)             (None, 1)                 33        
=================================================================
Total params: 202,817
Trainable params: 202,817
Non-trainable params: 0
_________________________________________________________________
window: 14 accuracy: 0.454545454545
('Compilation Time : ', 0.021993160247802734)
_________________________________________________________________
Layer (type)                 Output Shape              Param #   
=================================================================
lstm_29 (LSTM)               (None, 15, 128)           67072     
_________________________________________________________________
dropout_29 (Dropout)         (None, 15, 128)           0         
_________________________________________________________________
lstm_30 (LSTM)               (None, 128)               131584    
_________________________________________________________________
dropout_30 (Dropout)         (None, 128)               0         
_________________________________________________________________
dense_29 (Dense)             (None, 32)                4128      
_________________________________________________________________
dense_30 (Dense)             (None, 1)                 33        
=================================================================
Total params: 202,817
Trainable params: 202,817
Non-trainable params: 0
_________________________________________________________________
window: 15 accuracy: 0.47619047619
('Compilation Time : ', 0.018852949142456055)
_________________________________________________________________
Layer (type)                 Output Shape              Param #   
=================================================================
lstm_31 (LSTM)               (None, 16, 128)           67072     
_________________________________________________________________
dropout_31 (Dropout)         (None, 16, 128)           0         
_________________________________________________________________
lstm_32 (LSTM)               (None, 128)               131584    
_________________________________________________________________
dropout_32 (Dropout)         (None, 128)               0         
_________________________________________________________________
dense_31 (Dense)             (None, 32)                4128      
_________________________________________________________________
dense_32 (Dense)             (None, 1)                 33        
=================================================================
Total params: 202,817
Trainable params: 202,817
Non-trainable params: 0
_________________________________________________________________
window: 16 accuracy: 0.47619047619
