…
/usr/local/lib/python2.7/dist-packages/pandas/util/_decorators.py:118: FutureWarning: The `sheetname` keyword is deprecated, use `sheet_name` instead
  return func(*args, **kwargs)
2017-11-20 00:39:41.950996: I tensorflow/core/platform/cpu_feature_guard.cc:137] Your CPU supports instructions that this TensorFlow binary was not compiled to use: SSE4.1 SSE4.2 AVX AVX2 FMA
('Compilation Time : ', 0.027276992797851562)
_________________________________________________________________
Layer (type)                 Output Shape              Param #   
=================================================================
lstm_1 (LSTM)                (None, 1, 128)            66560     
_________________________________________________________________
dropout_1 (Dropout)          (None, 1, 128)            0         
_________________________________________________________________
lstm_2 (LSTM)                (None, 128)               131584    
_________________________________________________________________
dropout_2 (Dropout)          (None, 128)               0         
_________________________________________________________________
dense_1 (Dense)              (None, 32)                4128      
_________________________________________________________________
dense_2 (Dense)              (None, 1)                 33        
=================================================================
Total params: 202,305
Trainable params: 202,305
Non-trainable params: 0
_________________________________________________________________
window: 1 accuracy: 0.375
('Compilation Time : ', 0.026279926300048828)
_________________________________________________________________
Layer (type)                 Output Shape              Param #   
=================================================================
lstm_3 (LSTM)                (None, 2, 128)            66560     
_________________________________________________________________
dropout_3 (Dropout)          (None, 2, 128)            0         
_________________________________________________________________
lstm_4 (LSTM)                (None, 128)               131584    
_________________________________________________________________
dropout_4 (Dropout)          (None, 128)               0         
_________________________________________________________________
dense_3 (Dense)              (None, 32)                4128      
_________________________________________________________________
dense_4 (Dense)              (None, 1)                 33        
=================================================================
Total params: 202,305
Trainable params: 202,305
Non-trainable params: 0
_________________________________________________________________
window: 2 accuracy: 0.541666666667
('Compilation Time : ', 0.018682003021240234)
_________________________________________________________________
Layer (type)                 Output Shape              Param #   
=================================================================
lstm_5 (LSTM)                (None, 3, 128)            66560     
_________________________________________________________________
dropout_5 (Dropout)          (None, 3, 128)            0         
_________________________________________________________________
lstm_6 (LSTM)                (None, 128)               131584    
_________________________________________________________________
dropout_6 (Dropout)          (None, 128)               0         
_________________________________________________________________
dense_5 (Dense)              (None, 32)                4128      
_________________________________________________________________
dense_6 (Dense)              (None, 1)                 33        
=================================================================
Total params: 202,305
Trainable params: 202,305
Non-trainable params: 0
_________________________________________________________________
window: 3 accuracy: 0.479166666667
('Compilation Time : ', 0.028601884841918945)
_________________________________________________________________
Layer (type)                 Output Shape              Param #   
=================================================================
lstm_7 (LSTM)                (None, 4, 128)            66560     
_________________________________________________________________
dropout_7 (Dropout)          (None, 4, 128)            0         
_________________________________________________________________
lstm_8 (LSTM)                (None, 128)               131584    
_________________________________________________________________
dropout_8 (Dropout)          (None, 128)               0         
_________________________________________________________________
dense_7 (Dense)              (None, 32)                4128      
_________________________________________________________________
dense_8 (Dense)              (None, 1)                 33        
=================================================================
Total params: 202,305
Trainable params: 202,305
Non-trainable params: 0
_________________________________________________________________
window: 4 accuracy: 0.520833333333
('Compilation Time : ', 0.01792311668395996)
_________________________________________________________________
Layer (type)                 Output Shape              Param #   
=================================================================
lstm_9 (LSTM)                (None, 5, 128)            66560     
_________________________________________________________________
dropout_9 (Dropout)          (None, 5, 128)            0         
_________________________________________________________________
lstm_10 (LSTM)               (None, 128)               131584    
_________________________________________________________________
dropout_10 (Dropout)         (None, 128)               0         
_________________________________________________________________
dense_9 (Dense)              (None, 32)                4128      
_________________________________________________________________
dense_10 (Dense)             (None, 1)                 33        
=================================================================
Total params: 202,305
Trainable params: 202,305
Non-trainable params: 0
_________________________________________________________________
window: 5 accuracy: 0.458333333333
('Compilation Time : ', 0.02542901039123535)
_________________________________________________________________
Layer (type)                 Output Shape              Param #   
=================================================================
lstm_11 (LSTM)               (None, 6, 128)            66560     
_________________________________________________________________
dropout_11 (Dropout)         (None, 6, 128)            0         
_________________________________________________________________
lstm_12 (LSTM)               (None, 128)               131584    
_________________________________________________________________
dropout_12 (Dropout)         (None, 128)               0         
_________________________________________________________________
dense_11 (Dense)             (None, 32)                4128      
_________________________________________________________________
dense_12 (Dense)             (None, 1)                 33        
=================================================================
Total params: 202,305
Trainable params: 202,305
Non-trainable params: 0
_________________________________________________________________
window: 6 accuracy: 0.468085106383
('Compilation Time : ', 0.017600059509277344)
_________________________________________________________________
Layer (type)                 Output Shape              Param #   
=================================================================
lstm_13 (LSTM)               (None, 7, 128)            66560     
_________________________________________________________________
dropout_13 (Dropout)         (None, 7, 128)            0         
_________________________________________________________________
lstm_14 (LSTM)               (None, 128)               131584    
_________________________________________________________________
dropout_14 (Dropout)         (None, 128)               0         
_________________________________________________________________
dense_13 (Dense)             (None, 32)                4128      
_________________________________________________________________
dense_14 (Dense)             (None, 1)                 33        
=================================================================
Total params: 202,305
Trainable params: 202,305
Non-trainable params: 0
_________________________________________________________________
window: 7 accuracy: 0.404255319149
('Compilation Time : ', 0.025044918060302734)
_________________________________________________________________
Layer (type)                 Output Shape              Param #   
=================================================================
lstm_15 (LSTM)               (None, 8, 128)            66560     
_________________________________________________________________
dropout_15 (Dropout)         (None, 8, 128)            0         
_________________________________________________________________
lstm_16 (LSTM)               (None, 128)               131584    
_________________________________________________________________
dropout_16 (Dropout)         (None, 128)               0         
_________________________________________________________________
dense_15 (Dense)             (None, 32)                4128      
_________________________________________________________________
dense_16 (Dense)             (None, 1)                 33        
=================================================================
Total params: 202,305
Trainable params: 202,305
Non-trainable params: 0
_________________________________________________________________
window: 8 accuracy: 0.425531914894
('Compilation Time : ', 0.02610611915588379)
_________________________________________________________________
Layer (type)                 Output Shape              Param #   
=================================================================
lstm_17 (LSTM)               (None, 9, 128)            66560     
_________________________________________________________________
dropout_17 (Dropout)         (None, 9, 128)            0         
_________________________________________________________________
lstm_18 (LSTM)               (None, 128)               131584    
_________________________________________________________________
dropout_18 (Dropout)         (None, 128)               0         
_________________________________________________________________
dense_17 (Dense)             (None, 32)                4128      
_________________________________________________________________
dense_18 (Dense)             (None, 1)                 33        
=================================================================
Total params: 202,305
Trainable params: 202,305
Non-trainable params: 0
_________________________________________________________________
window: 9 accuracy: 0.382978723404
('Compilation Time : ', 0.01716303825378418)
_________________________________________________________________
Layer (type)                 Output Shape              Param #   
=================================================================
lstm_19 (LSTM)               (None, 10, 128)           66560     
_________________________________________________________________
dropout_19 (Dropout)         (None, 10, 128)           0         
_________________________________________________________________
lstm_20 (LSTM)               (None, 128)               131584    
_________________________________________________________________
dropout_20 (Dropout)         (None, 128)               0         
_________________________________________________________________
dense_19 (Dense)             (None, 32)                4128      
_________________________________________________________________
dense_20 (Dense)             (None, 1)                 33        
=================================================================
Total params: 202,305
Trainable params: 202,305
Non-trainable params: 0
_________________________________________________________________
window: 10 accuracy: 0.382978723404
('Compilation Time : ', 0.03078007698059082)
_________________________________________________________________
Layer (type)                 Output Shape              Param #   
=================================================================
lstm_21 (LSTM)               (None, 11, 128)           66560     
_________________________________________________________________
dropout_21 (Dropout)         (None, 11, 128)           0         
_________________________________________________________________
lstm_22 (LSTM)               (None, 128)               131584    
_________________________________________________________________
dropout_22 (Dropout)         (None, 128)               0         
_________________________________________________________________
dense_21 (Dense)             (None, 32)                4128      
_________________________________________________________________
dense_22 (Dense)             (None, 1)                 33        
=================================================================
Total params: 202,305
Trainable params: 202,305
Non-trainable params: 0
_________________________________________________________________
window: 11 accuracy: 0.478260869565
('Compilation Time : ', 0.026085853576660156)
_________________________________________________________________
Layer (type)                 Output Shape              Param #   
=================================================================
lstm_23 (LSTM)               (None, 12, 128)           66560     
_________________________________________________________________
dropout_23 (Dropout)         (None, 12, 128)           0         
_________________________________________________________________
lstm_24 (LSTM)               (None, 128)               131584    
_________________________________________________________________
dropout_24 (Dropout)         (None, 128)               0         
_________________________________________________________________
dense_23 (Dense)             (None, 32)                4128      
_________________________________________________________________
dense_24 (Dense)             (None, 1)                 33        
=================================================================
Total params: 202,305
Trainable params: 202,305
Non-trainable params: 0
_________________________________________________________________
window: 12 accuracy: 0.434782608696
('Compilation Time : ', 0.01821589469909668)
_________________________________________________________________
Layer (type)                 Output Shape              Param #   
=================================================================
lstm_25 (LSTM)               (None, 13, 128)           66560     
_________________________________________________________________
dropout_25 (Dropout)         (None, 13, 128)           0         
_________________________________________________________________
lstm_26 (LSTM)               (None, 128)               131584    
_________________________________________________________________
dropout_26 (Dropout)         (None, 128)               0         
_________________________________________________________________
dense_25 (Dense)             (None, 32)                4128      
_________________________________________________________________
dense_26 (Dense)             (None, 1)                 33        
=================================================================
Total params: 202,305
Trainable params: 202,305
Non-trainable params: 0
_________________________________________________________________
window: 13 accuracy: 0.391304347826
('Compilation Time : ', 0.01690983772277832)
_________________________________________________________________
Layer (type)                 Output Shape              Param #   
=================================================================
lstm_27 (LSTM)               (None, 14, 128)           66560     
_________________________________________________________________
dropout_27 (Dropout)         (None, 14, 128)           0         
_________________________________________________________________
lstm_28 (LSTM)               (None, 128)               131584    
_________________________________________________________________
dropout_28 (Dropout)         (None, 128)               0         
_________________________________________________________________
dense_27 (Dense)             (None, 32)                4128      
_________________________________________________________________
dense_28 (Dense)             (None, 1)                 33        
=================================================================
Total params: 202,305
Trainable params: 202,305
Non-trainable params: 0
_________________________________________________________________
window: 14 accuracy: 0.369565217391
('Compilation Time : ', 0.01690196990966797)
_________________________________________________________________
Layer (type)                 Output Shape              Param #   
=================================================================
lstm_29 (LSTM)               (None, 15, 128)           66560     
_________________________________________________________________
dropout_29 (Dropout)         (None, 15, 128)           0         
_________________________________________________________________
lstm_30 (LSTM)               (None, 128)               131584    
_________________________________________________________________
dropout_30 (Dropout)         (None, 128)               0         
_________________________________________________________________
dense_29 (Dense)             (None, 32)                4128      
_________________________________________________________________
dense_30 (Dense)             (None, 1)                 33        
=================================================================
Total params: 202,305
Trainable params: 202,305
Non-trainable params: 0
_________________________________________________________________
window: 15 accuracy: 0.413043478261
('Compilation Time : ', 0.018444061279296875)
_________________________________________________________________
Layer (type)                 Output Shape              Param #   
=================================================================
lstm_31 (LSTM)               (None, 16, 128)           66560     
_________________________________________________________________
dropout_31 (Dropout)         (None, 16, 128)           0         
_________________________________________________________________
lstm_32 (LSTM)               (None, 128)               131584    
_________________________________________________________________
dropout_32 (Dropout)         (None, 128)               0         
_________________________________________________________________
dense_31 (Dense)             (None, 32)                4128      
_________________________________________________________________
dense_32 (Dense)             (None, 1)                 33        
=================================================================
Total params: 202,305
Trainable params: 202,305
Non-trainable params: 0
_________________________________________________________________
window: 16 accuracy: 0.466666666667
